fma/best_model_val_f1(2).pth (torch, 279105 bytes, 4 tensors)

net.0.weight f4 [129, 518]
0.04307461 0.08817975 -0.020348802 -0.0322788 0.026291272 0.047304846 0.04323043 0.017147433
-0.021019893 0.00366905 0.03114881 0.07474008 -0.005561428 -0.018394692 0.020401025 0.05052601
0.10289335 -0.022442251 -0.0336584 0.042595178 -0.024440728 0.021039842 -0.049126007 0.09173404
0.025490975 -0.012899917 0.062458035 -0.021672336 0.029226778 0.043711375 0.06554283 -0.041829973
-0.021531282 0.019453384 0.010449075 0.047835026 0.017763477 -0.02868163 0.015920542 0.03499025
-0.023295509 0.024074132 0.008541611 -0.023088425 -0.041103277 -0.02792802 0.031229459 0.055957936
-0.024561148 0.03483759 -0.049820904 -0.04483663 0.010188648 -0.0011622248 0.01897279 0.027007524
-0.0102880495 0.039735883 0.065134555 -0.04191908 0.0144885555 -0.023606876 0.049056523 0.005058243
0.0420102 -0.10929593 0.005506967 -0.0046319547 -0.0111942515 0.041889884 0.007230096 -0.018478576
-0.0033146075 -0.008828493 0.058597773 0.0074351947 0.11030717 -0.012803785 0.013756267 0.030993309
0.093075514 -0.0070393877 0.013564978 -0.05360767 0.069193065 0.081142426 -0.0064244787 -0.02484856
0.02262953 -0.030462502 0.005532957 0.055986952 0.048170567 0.07986544 -0.051148735 -0.06482589
-0.01260697 0.0058451584 -0.016872602 -0.034550663 -0.05417784 0.021647861 -0.10022014 -0.08832702
-0.029314732 0.03652128 0.044319313 -0.081227414 0.06408256 0.04669161 0.08786874 0.005474365
0.035155408 0.05394966 0.007753853 0.02945977 0.027501801 0.02544295 0.041965295 0.06904963
0.049905058 -0.01850449 0.041106764 0.054912157 0.010480411 0.025065817 0.065412514 0.028713636
0.04784001 0.014539383 0.01428149 0.053359855 0.0029555066 -0.028913025 0.0888593 0.07366103
-0.034978013 -0.0550426 -0.0028599186 -0.0710847 0.030393409 0.012842008 0.055507023 0.0056160837
-0.07312649 -0.029500369 -0.028271187 0.014991141 -0.06466725 0.01444809 -0.019778913 -0.05507313
-0.061948746 0.0292933 0.023845326 0.06320962 -0.03781579 -0.08277504 0.019263085 -0.08083994
0.0117001925 -0.06744449 -0.02608261 0.0028212592 0.005625354 -0.041986197 -0.0075748945 -0.13596377
-0.04523118 0.028255424 0.06410887 0.00382323 0.07516619 0.039803457 0.02631752 0.030296952
0.02468398 0.026906611 -0.007656592 -0.01871478 0.056955773 -0.101623744 -0.1380583 -0.05445817
-0.016209345 -0.059755575 -0.0055534374 -0.021560095 -0.08818334 0.0566029 0.052469566 0.022585796
0.025487024 -0.0043905857 -0.018518653 -0.008872311 -0.0137137 0.00959821 0.0668702 0.039814685
0.038808193 0.034708258 0.015419042 0.032624498 0.062020134 -0.0044460283 -0.0006973536 0.011327215
0.038348492 -0.00281451 0.06587296 0.045958642 0.01451517 0.07594342 0.041519172 -0.0007769865
-0.04348638 -0.0035868045 -0.024103388 -0.0042196065 0.034152802 0.0893569 0.010227217 0.018818993
0.018129341 -0.047006253 -0.0020291891 -0.008697007 -0.058483858 -0.042699844 0.006015078 -0.019132635
-0.05062376 -0.032033473 0.001481184 0.015626974 -0.07436056 -0.012145172 -0.08697397 -0.055708382
0.047253378 -0.056620557 -0.018719919 -0.02899138 -0.0068638525 0.008873724 0.04270027 0.033251848
0.051224172 0.007235261 -0.13181098 -0.020376947 -0.065075114 0.09673147 -0.024654672 0.01085739
00000000: 016f 303d 9697 b43d 88b2 a6bc c636 04bd
00000010: cb60 d73c bac2 413d 6412 313d c678 8c3c
00000020: e931 acbc 7274 703b ca2b ff3c 5411 993d
00000030: a43c b6bb 77b0 96bc 0d20 a73c 5df4 4e3d
00000040: c0b9 d23d d0d8 b7bc 64dd 09bd 4878 2e3d
00000050: ec37 c8bc bf5b ac3c 5a38 49bd 0edf bb3d
00000060: 73d2 d03c 2c5a 53bc ffd3 7f3d 2f8a b1bc
00000070: ff6c ef3c b30a 333d 523b 863d e855 2bbd
00000080: 5f62 b0bc b45c 9f3c 9932 2b3c a9ee 433d
00000090: b684 913c bdf5 eabc cc6b 823c f051 0f3d
000000a0: 39d6 bebc 1d37 c53c 1df2 0b3c f023 bdbc
000000b0: e95b 28bd 4ec9 e4bc ecd4 ff3c 2634 653d
000000c0: 7634 c9bc dcb1 0e3d 0111 4cbd 9da6 37bd
000000d0: 49ee 263c cb55 98ba d36c 9b3c e23e dd3c
000000e0: 358f 28bc 18c2 223d 4465 853d 57b3 2bbd
000000f0: 6861 6d3c 3563 c1bc 7eef 483d 9ebf a53b
00000100: e312 2c3d 8bd6 dfbd ca73 b43b a7c7 97bb
00000110: 1868 37bc ba94 2b3d 71ea ec3b 6260 97bc
00000120: e339 59bb 62a5 10bc 3804 703d efa2 f33b
00000130: bae8 e13d f7c6 51bc f761 613c aee5 fd3c
00000140: 609e be3d aaaa e6bb a43f 5e3c b793 5bbd
00000150: 18b5 8d3d 002e a63d 6f84 d2bb 358f cbbc
00000160: 9061 b93c 7f8c f9bc cf4d b53b 9352 653d
00000170: 804e 453d 7e90 a33d 5681 51bd 70c3 84bd
00000180: 778d 4ebc be88 bf3b 6938 8abc ff84 0dbd
00000190: 95e9 5dbd db56 b13c 3740 cdbd cce4 b4bd
000001a0: 7325 f0bc 5697 153d 2b88 353d 8f5a a6bd
000001b0: b83d 833d b43f 3f3d 87f4 b33d 4d62 b33b
000001c0: 1eff 0f3d 52fa 5c3d 0914 fe3b 9e55 f13c
000001d0: 754b e13c bc6d d03c cde3 2b3d e469 8d3d
000001e0: 3f69 4c3d ba96 97bc 915f 283d 92eb 603d
000001f0: 08b6 2b3c d456 cd3c fff6 853d dc38 eb3c
00000200: e3f3 433d 9836 6e3c e9fc 693c dd8f 5a3d
00000210: 2cb1 413b 02db ecbc ddfb b53d 98db 963d
00000220: 1b45 0fbd 5974 61bd 796d 3bbb db94 91bd
00000230: 99fb f83c 4967 523c 555b 633d 2007 b83b
00000240: 57c3 95bd c2aa f1bc fa98 e7bc 679d 753c
00000250: 4370 84bd afb7 6c3c 6307 a2bc 5d94 61bd
00000260: f8bd 7dbd 81f8 ef3c 4657 c33c 0c74 813d
00000270: bbe4 1abd f685 a9bd 9ecd 9d3c 698f a5bd
00000280: 2ab2 3f3c 5620 8abd 33ab d5bc e0e4 383b
00000290: e454 b83b b8f9 2bbd d236 f8bb 163a 0bbe
000002a0: 5444 39bd eb77 e73c 834b 833d 288f 7a3b
000002b0: bbf0 993d f308 233d d797 d73c 5031 f83c
000002c0: 0f36 ca3c 416b dc3c 26e4 fabb bd4f 99bc
000002d0: 754a 693d 1c20 d0bd 285f 0dbe 880f 5fbd
000002e0: 76c9 84bc 43c2 74bd 9cf9 b5bb cc9e b0bc
000002f0: 7899 b4bd 71d8 673d 54ea 563d d905 b93c
00000300: 2aca d03c e7de 8fbb 6eb4 97bc 2b5d 11bc
00000310: 6daf 60bc d041 1d3c 3ef3 883d b914 233d
00000320: 57f5 1e3d 3f2a 0e3d 26a0 7c3c 44a1 053d
00000330: d308 7e3d fdaf 91bb 9cce 36ba c895 393c
00000340: 4f13 1d3d a473 38bb 67e8 863d 213f 3c3d
00000350: 09d1 6d3c 3988 9b3d 0210 2a3d aeae 4bba
00000360: c61e 32bd 9810 6bbb 7874 c5bc a044 8abb
00000370: cfe3 0b3d c000 b73d 0f90 273c 4a2a 9a3c
00000380: fc83 943c a189 40bd 25fc 04bb e47d 0ebc
00000390: c58c 6fbd 08e6 2ebd 221a c53b 0bbc 9cbc
000003a0: dc5a 4fbd 8835 03bd 4a24 c23a 2404 803c
000003b0: 594a 98bd 8bfc 46bc 691f b2bd 792e 64bd
000003c0: c28c 413d f5ea 67bd 845a 99bc 557f edbc
000003d0: 2bea e0bb 1963 113c 7ae6 2e3d 1733 083d
000003e0: 70d0 513d c515 ed3b 75f9 06be 8eed a6bc
000003f0: 1a46 85bd 261b c63d 98f8 c9bc 32e3 313c

net.0.bias f4 [129]
-0.05949539 -0.079643406 -0.2183793 -0.29007927 -0.18890885 -0.1191814 -0.09360073 0.025561595
-0.042616196 -9.314292e-06 -0.1114666 -0.13654114 -0.031560354 0.031239044 -0.046550635 -0.1061299
-0.046280604 0.03061096 -0.18861453 0.040314067 -0.069141395 -0.16301194 -0.06501921 -0.058467437
-0.117527306 -0.11642579 -0.011200733 -0.13352129 -0.0049677016 -0.0854444 -0.14083089 -0.08354548
-0.1297015 -0.062048327 -0.023402695 -0.09636061 0.054013673 -0.14312758 -0.007860995 -0.03804262
-0.030626973 -0.1720123 -0.19278449 0.107872024 -0.06530694 0.040007144 -0.17468026 -0.1051889
-0.014289773 -0.10388488 -0.0772705 -0.13437091 -0.1519861 -0.04588069 -0.013990643 -0.041687075
-0.055294067 -0.04991237 -0.069293454 -0.16781187 0.017264053 -0.26925927 -0.048331086 -0.0040375656
-0.021541957 -0.050380185 0.012367263 -0.011058875 -0.019248744 -0.2527529 -0.031440586 -0.06633582
-0.100243665 -0.059470113 -0.18004099 -0.026486443 -0.06003985 -0.101929136 -0.11259242 -0.16082671
-0.13809194 -0.007512047 -0.13480537 -0.20557001 -0.0931403 -0.028878585 -0.07516396 0.008632048
-0.075521156 -0.08869428 -0.02872075 -0.11015329 -0.08089433 0.0007610029 -0.0004627639 -0.24386899
0.063806765 -0.091770366 0.035436068 -0.2156127 0.012115951 -0.05303884 -0.003018221 -0.05840804
-0.09542749 -0.31377357 -0.0034856142 -0.15734743 -0.086557366 -0.17336878 -0.05530651 -0.14474545
0.05747417 -0.08996384 -0.03935847 -0.0789091 -0.11854612 -0.092580065 -0.11738959 -0.07542795
0.12397364 0.06478547 -0.0048816954 -0.02239566 -0.038866792 0.04177684 -0.21897084 -0.034728076
-0.035087198
00000000: 70b1 73bd 151c a3bd d39e 5fbe 4585 94be
00000010: 5271 41be 6115 f4bd bdb1 bfbd 8d66 d13c
00000020: 528e 2ebd 9444 1cb7 9a48 e4bd 71d1 0bbe
00000030: 6e45 01bd 06e9 ff3c e1ab 3ebd a25a d9bd
00000040: bb90 3dbd d6c3 fa3c 2b24 41be 5d20 253d
00000050: 019a 8dbd 9aec 26be cb28 85bd 8d7b 6fbd
00000060: 28b2 f0bd a570 eebd 4783 37bc ceb9 08be
00000070: 1ac8 a2bb 79fd aebd f935 10be e519 abbd
00000080: 78d0 04be 6326 7ebd 02b7 bfbc b658 c5bd
00000090: 713d 5d3d 0990 12be 67cb 00bc 94d2 1bbd
000000a0: 6be5 fabc fe23 30be 4c69 45be 02ec dc3d
000000b0: a5bf 85bd 88de 233d 62df 32be 476d d7bd
000000c0: a71f 6abc 99c1 d4bd ff3f 9ebd 8798 09be
000000d0: 3fa2 1bbe 64ed 3bbd 0339 65bc 11c0 2abd
000000e0: 087c 62bd ea70 4cbd bae9 8dbd e0d6 2bbe
000000f0: 586d 8d3c 5adc 89be d1f6 45bd 8e4d 84bb
00000100: c278 b0bc 745b 4ebd 10a0 4a3c 4930 35bc
00000110: 8baf 9dbc d468 81be d8c7 00bd 13db 87bd
00000120: 8d4c cdbd ef96 73bd aa5c 38be 19fa d8bc
00000130: 59ec 75bd 39c0 d0bd db96 e6bd c2af 24be
00000140: f967 0dbe 9e27 f6bb 6b0a 0abe f280 52be
00000150: 57c0 bebd c892 ecbc 90ef 99bd 6f6d 0d3c
00000160: d6aa 9abd 59a5 b5bd c747 ebbc 0c98 e1bd
00000170: edab a5bd 0a7e 473a 1f9f f2b9 cbb8 79be
00000180: 1fad 823d 1af2 bbbd 6925 113d 93c9 5cbe
00000190: fb81 463c 413f 59bd 58cd 45bb 453d 6fbd
000001a0: 7d6f c3bd eea6 a0be e76e 64bb af1f 21be
000001b0: fd44 b1bd 9687 31be 1489 62bd 2738 14be
000001c0: 096a 6b3d f63e b8bd 5936 21bd 189b a1bd
000001d0: 4fc8 f2bd 9e9a bdbd f469 f0bd f879 9abd
000001e0: e4e5 fd3d 3fae 843d a1f6 9fbb 1a77 b7bc
000001f0: c932 1fbd 311e 2b3d e439 60be 073f 0ebd
00000200: 98b7 0fbd

net.3.weight f4 [16, 129]
-0.08731979 -0.21883042 -0.05733386 -0.19034167 0.035296813 0.06547726 0.1338788 -0.18042567
0.021078851 -0.13882388 -0.12973632 -0.013260648 0.17819755 0.08588802 -0.079743356 -0.10046883
-0.055034127 -0.15813254 -0.16052282 -0.094555646 0.006250675 0.013371711 0.1153894 0.047891
-0.07872559 -0.1860242 -0.11990617 -0.0053616664 -0.33520594 -0.15034984 -0.036369212 -0.07255529
-0.020487782 -0.22769582 0.03307004 0.10019573 -0.17794181 -0.09259675 -0.12212741 0.034906045
0.1308014 -0.022499014 0.0790604 -0.14853401 -0.16873495 -0.122906424 -0.099680945 -0.1352123
-0.027670097 -0.026055207 0.091410264 -0.09342063 -0.27904183 0.19464262 0.011390951 -0.15382153
-0.35489857 -0.089327134 -0.113185056 0.027686112 -0.28134686 -0.006330863 0.09854868 -0.07831114
-0.15926577 0.060118876 -0.14102015 -0.100869514 0.1017776 -0.042072523 -0.0857195 0.09949808
-0.085916474 -0.13434464 0.06519502 0.07473124 -0.10678239 -0.10673383 -0.24766695 -0.13383624
-0.27913365 -0.15673353 -0.054613512 -0.17615552 0.15952632 -0.20940776 -0.011401965 -0.18786353
0.02802564 -0.05399123 -0.04545712 0.20366977 -0.25624952 0.16020389 0.07812974 -0.08520435
-0.23598853 -0.020040208 -0.27131164 0.077949405 0.1139905 -0.17654654 -0.04516058 -0.111797094
-0.09064208 -0.12925886 -0.14014606 -0.27963448 -0.043093458 0.037717413 -0.19673805 -0.024919957
0.003253244 0.0604798 -0.026220787 -0.08353561 0.036329396 -0.041248366 -0.026577221 -0.00021593318
0.0013650754 0.030664716 -0.10507435 -0.23389994 -0.18171218 0.008046065 -0.040523276 -0.1272212
-0.045439675 -0.09674031 0.061272856 0.06504047 0.10175747 0.037038993 -0.07884839 0.104321234
-0.10743596 -0.11395691 -0.2947525 -0.036871497 -0.1555529 0.034703508 0.089388005 0.13903527
0.12824388 -0.17933661 -0.038828216 -0.03554533 -0.36532873 -0.20431075 0.214322 -0.0681773
0.0014453307 -0.037302133 -0.09952528 -0.08678562 0.05366314 -0.101159506 -0.058749214 -0.36328337
0.13562438 -0.037548985 0.13427368 -0.17321442 -0.2595142 -0.062132098 0.10939715 -0.17530996
-0.19796869 -0.08117869 -0.2018946 0.10641946 -0.18787135 -0.12562525 -0.09148222 -0.01653078
0.013064821 0.06960127 -0.11800503 0.04110558 -0.05290299 -0.12630585 -0.08852165 -0.29456007
-0.022512188 -0.11026901 -0.20362394 -0.17973858 -0.03442127 -0.09106548 0.054637797 -0.20433585
0.070884824 -0.16677693 0.120756105 -0.21312046 -0.26606938 -0.0034871586 -0.1834535 -0.16449495
-0.2567901 -0.09673824 0.047389742 0.13164635 -0.15055238 -0.22230774 0.02254633 -0.040127687
0.011409947 0.046134517 -0.021871261 0.011822779 0.0016374119 -0.084084824 0.011286988 -0.27540827
0.01869832 -0.1562377 -0.002535598 -0.070730105 -0.19035397 0.033512022 0.098832674 -0.18263514
0.13945544 -0.01021208 -0.10796934 -0.16020806 0.0820853 -0.36930135 -0.3448379 -0.10736871
0.03908966 -0.060952064 0.17459835 0.17390084 0.056347672 -0.28487065 0.009766408 -0.09008708
0.13185872 -0.17489412 -0.09362328 0.12401781 -0.19798426 0.004576639 -0.12601663 -0.02057302
0.15685709 -0.22765583 -0.16655283 -0.24503683 0.08077027 -0.15880872 -0.15022251 0.14246872
00000000: b8d4 b2bd 1515 60be e9d6 6abd ede8 42be
00000010: 6493 103d f118 863d 8617 093e 82c1 38be
00000020: 8ead ac3c d927 0ebe 99d9 04be 3043 59bc
00000030: 6b79 363e 0fe6 af3d 7c50 a3bd 9ac2 cdbd
00000040: 776b 61bd 7fed 21be 1860 24be 64a6 c1bd
00000050: 76d2 cc3b 0515 5b3c 4751 ec3d 5a29 443d
00000060: e23a a1bd 217d 3ebe 5e91 f5bd ebb0 afbb
00000070: 1da0 abbe 4ff5 19be e2f7 14bd de97 94bd
00000080: fed5 a7bc 1829 69be 7374 073d 6b33 cd3d
00000090: 6136 36be 5da3 bdbd ef1d fabd a4f9 0e3d
000000a0: cdf0 053e da4f b8bc 6bea a13d 4d19 18be
000000b0: dbc8 2cbe 5db6 fbbd 8625 ccbd 1875 0abe
000000c0: 66ac e2bc bb71 d5bc 4e35 bb3d 5153 bfbd
000000d0: 92de 8ebe 6550 473e 1da1 3a3c 6483 1dbe
000000e0: 44b5 b5be 25f1 b6bd 91cd e7bd fccd e23c
000000f0: b20c 90be 2173 cfbb e4d3 c93d 9761 a0bd
00000100: 9116 23be 363f 763d 9667 10be ad94 cebd
00000110: c670 d03d 3d54 2cbd b58d afbd a6c5 cb3d
00000120: faf4 afbd a491 09be f784 853d b10c 993d
00000130: bab0 dabd 4497 dabd 689c 7dbe 5e0c 09be
00000140: 9bea 8ebe c17e 20be 6bb2 5fbd 1d62 34be
00000150: de5a 233e fd6e 56be 4fcf 3abc 4c5f 40be
00000160: 0796 e53c e825 5dbd 3f31 3abd cf8e 503e
00000170: 2333 83be 7d0c 243e 7c02 a03d 9e7f aebd
00000180: faa6 71be 5d2b a4bc 5ce9 8abe f0a3 9f3d
00000190: da73 e93d 9ec8 34be 4dfa 38bd e0f5 e4bd
000001a0: 8ea2 b9bd 6f5c 04be 7382 0fbe 402c 8fbe
000001b0: c482 30bd 937d 1a3d b375 49be f024 ccbc
000001c0: 6134 553b abb9 773d facc d6bc b814 abbd
000001d0: 22ce 143d 0cf4 28bd 79b8 d9bc 1f6c 62b9
000001e0: 54ec b23a 9234 fb3c 3931 d7bd 7783 6fbe
000001f0: c212 3abe a5d3 033c bcfb 25bd 4646 02be
00000200: f41e 3abd c91f c6bd 3ff9 7a3d f033 853d
00000210: 3866 d03d 33b6 173d 447b a1bd 5fa6 d53d
00000220: 6207 dcbd 3e62 e9bd cde9 96be 9106 17bd
00000230: 4249 1fbe 4425 0e3d 0f11 b73d 435f 0e3e
00000240: 5d52 033e 04a4 37be 560a 1fbd fb97 11bd
00000250: 5e0c bbbe d636 51be 3a77 5b3e 8aa0 8bbd
00000260: 4071 bd3a 1fca 18bd e9d3 cbbd a9bc b1bd
00000270: e1cd 5b3d b72c cfbd 04a3 70bd 4700 babe
00000280: 1ee1 0a3e f7cc 19bd 0a7f 093e 1f5f 31be
00000290: 0cdf 84be 3a7e 7ebd 9d0b e03d 7484 33be
000002a0: 4eb8 4abe 0341 a6bd 75bd 4ebe 72f2 d93d
000002b0: 5961 40be e8a3 00be 085b bbbd 8f6b 87bc
000002c0: d50d 563c 1c8b 8e3d 9fac f1bd 535e 283d
000002d0: ceb0 58bd 5256 01be d74a b5bd 94d0 96be
000002e0: 7b6b b8bc b8d4 e1bd cb82 50be 640d 38be
000002f0: 51fd 0cbd 8a80 babd e2cb 5f3d 6b3d 51be
00000300: 102c 913d 92c7 2abe fa4e f73d 403c 5abe
00000310: 3f3a 88be d088 64bb 3cdb 3bbe 5d71 28be
00000320: fe79 83be b31e c6bd bf1b 423d 4dce 063e
00000330: 672a 1abe a4a4 63be 15b3 b83c ee5c 24bd
00000340: c9f0 3a3c 8cf7 3c3d 5c2b b3bc 54b4 413c
00000350: 6d9e d63a aa34 acbd 0fed 383c 5002 8dbe
00000360: 382d 993c c7fc 1fbe 462c 26bb f2da 90bd
00000370: 27ec 42be e743 093d c968 ca3d b504 3bbe
00000380: 68cd 0e3e 9150 27bc 081f ddbd 950d 24be
00000390: 561c a83d 1115 bdbe 988e b0be 20e4 dbbd
000003a0: 7b1c 203d dfa8 79bd e9c9 323e 1013 323e
000003b0: d1cc 663d 91da 91be 4903 203c 937f b8bd
000003c0: f905 073e 7217 33be 90bd bfbd 0dfd fd3d
000003d0: 63bc 4abe a1f7 953b 810a 01be c088 a8bc
000003e0: 259f 203e 9c1e 69be d38c 2abe efea 7abe
000003f0: e26a a53d c19e 22be eed3 19be 52e3 113e

net.3.bias f4 [16]
-0.041800257 -0.016564962 0.024627151 -0.15208764 0.09341292 -0.04075191 0.09531994 0.04597692
-0.020676114 -0.047306083 -0.038182333 -0.059151843 -0.036512684 0.07775993 -0.14046447 -0.1466768
00000000: bf36 2bbd 3eb3 87bc e1be c93c ddbc 1bbe
00000010: 464f bf3d 7aeb 26bd 1a37 c33d 4b52 3c3d
00000020: f460 a9bc 06c4 41bd 1465 1cbd 3449 72bd
00000030: 538e 15bd 9940 9f3d ebd5 0fbe 7132 16be
